data.pth (torch, 5015 bytes, 6 tensors)

l1.weight f4 [8, 54]
00000000: eb71 d43e d1d2 59bd 3a8a 8dbe 61b6 2cbe
00000010: 1bcc 98be e8b2 613f bcff c8bd 9d31 56be
00000020: 0a77 2bbe e68b 8ebe 2b43 6ebe 9756 c53d
00000030: 8b11 08be 755c 803d ae5c 9fbd 2758 cabc
00000040: 588b 10be 29cd 523f 579b 8abd 9839 c8be
00000050: 6262 4a3e 1133 a5be 6427 07bf c0b0 94be
00000060: c9a4 dcbd dac6 84bd e53c 883e 3e43 84be
00000070: 5f57 d73e c01e 6bbe 76c3 463f e05c adbd
00000080: 9dea 033e 1846 73be 97ab bbbd 9764 f63d
00000090: 75bc 4d3e 0973 39be 8309 a6bd 30b6 2cbe
000000a0: 0a0d 513f 4639 613d 68b3 cc3c 637a 6fbe
000000b0: da3d d3bc b5ba 02be b0d0 333f c8fe bf3e
000000c0: 6a2c 5ebd 9a83 dc3d 6cc8 ef3d f710 fd3d
000000d0: 7457 9ebd 6bb3 ec3d aa7a a6bd 4430 7f3e
000000e0: 9dcf d5be 6867 aa3e c785 b23e 6a31 2ebe
000000f0: 4ed7 903c 9c60 41be 5d1c 80be 7a1d 83be
00000100: 6119 e63e f14c a1be a3d8 3c3f 0a53 bfbe
00000110: fede a83e 1b76 8bbe 90d1 8f3e cf4a 1fbd
00000120: 3ac1 063f 9d74 d13e 859f 00be 012b 013f
00000130: 36f1 0b3f 3241 ae3e 5ef1 adbe ecc4 b63e
00000140: db99 583f 2a10 4e3e 9547 0a3f 877a bf3d
00000150: 775b c9bc 1831 9dbe df62 b63e 11ce e6be
00000160: 74dc 093f f578 a6be 76c4 ca3e 46ac 8ebe
00000170: 7ecf febd 0416 21be 8f7c f0bc 9270 2b3f
00000180: a18e 59be f3db a03d cf35 45be 7e64 ee3e
00000190: 2139 0bbf a001 afbd 3f82 2b3f 8dbf 793f
000001a0: c9db 6cbe b7d2 183f 60a6 d4bd bcd5 fb3d
000001b0: 177b 24be 1c44 073e 4c61 58be b4c3 17be
000001c0: a5f3 86be cae3 583f 475e 26be dbd6 c1be
000001d0: 752c c4bd 255c 44be 718e 09be d4a6 863d
000001e0: 6a2a 5a3e 76ee bf3e dfcd 253e dce4 9d3d
000001f0: 789f 8fbe f80f 0d3f 6a47 d13e a85e d4be
00000200: 7676 63be 3279 d4be de58 d4be 3c87 7ebe
00000210: 7584 e0bd 4542 9abe fc47 a13e 3687 693e
00000220: 60ea 3c3e c5ed bf3d 452f ee3e 3049 8f3e
00000230: 42b5 263c 7e88 cabe b993 863e bf66 0d3e
00000240: bf07 b73e 11a3 1fbe d448 eabd c857 9bbd
00000250: 4b89 943e 1a91 0e3f cd9d 623e d3e8 2c3e
00000260: 7eec 5c3e d79c 383e 4608 e1be 5586 17bd
00000270: 956b 0e3d 677d 023f 7e3f 72bc 3fc8 e33e
00000280: 6063 9d3c 2368 c73d 458a d8bd 5878 5cbe
00000290: c289 da3e d4ee 3c3d fe5a 7abe 5605 c1bd
000002a0: e4e7 a3bc be05 b33e 1a53 87bd 0bc1 bb3e
000002b0: 8f96 033d 2a53 48bc f439 983e a005 5d3d
000002c0: 40fe a2bc cccf a43d a424 15bd 93e5 98bd
000002d0: d73a 0dbe df61 42bd 9606 10bd fdbc 48bc
000002e0: c4ae d0bb aa1d ba3d 73cf d6bd 939c 88bd
000002f0: 45e4 70be c0b6 16be b0c3 a4bd 76d9 5bbe
00000300: 623d 27be 5ebf ec3c 7cee 023e 3237 ae3e
00000310: 52eb e8bd 95c1 1fbd 6a16 cd3d 00e1 51bc
00000320: 6a20 82bd 40b4 263b 8544 31bd 7238 c1be
00000330: 29ba be3d 60be aabd 1146 793e 685b d83c
00000340: 79d3 74be e8de d0bd c060 e8bd 21fd 4cbe
00000350: beab 013d 823c 51be 2a3e a2bd 10a9 533e
00000360: c42a 26be 674f a7be 1e91 bc3e b8a1 c1bd
00000370: 126a 103e 8e6d 2a3f e749 ea3e bc70 d03e
00000380: 036c 1f3f d202 7e3e 8d9d 17bc eb30 02be
00000390: 913c 883d 601d 6cbd 0ed2 1fbe 55fd 0fbe
000003a0: 7db2 5e3e 36e9 5b3f 9bb7 e13d 621e 553e
000003b0: 00db 65be b8d0 e53e 7e46 c33e 84aa edbe
000003c0: dc9f 66bd 106f a43d 5b04 c23e 9380 98be
000003d0: ff8f bb3e b224 9cbe 1783 d73e 08c4 1fbe
000003e0: a483 bc3d 8203 8e3e 32b6 54be af74 58be
000003f0: c7aa 303e af99 243f bb1e d63e dc0a bb3e
0.41493163 -0.053179566 -0.2764452 -0.16866447 -0.2984322 0.88163614 -0.098144025 -0.20917363
-0.16744629 -0.2784111 -0.2326781 0.09635656 -0.13287942 0.06267635 -0.07781349 -0.024700237
-0.14115655 0.823443 -0.0676791 -0.3910644 0.19764093 -0.32265523 -0.5279448 -0.290411
-0.10773618 -0.064832404 0.2660896 -0.25832552 0.42058846 -0.22960949 0.77642 -0.0846498
0.12882467 -0.23757207 -0.091635875 0.12030905 0.20091422 -0.18110289 -0.08107283 -0.16866374
0.8166052 0.05498626 0.024987891 -0.2338653 -0.025786329 -0.12766536 0.70240307 0.3749907
-0.054241575 0.107672885 0.11708149 0.123567514 -0.07731524 0.11557659 -0.08128865 0.24920756
-0.4175996 0.33282018 0.3486769 -0.17011037 0.01768079 -0.1888451 -0.2502164 -0.25608426
0.44941238 -0.31504014 0.7376806 -0.3736804 0.3298263 -0.27238545 0.2808957 -0.038889702
0.5263859 0.4090928 -0.12560852 0.50456244 0.54664934 0.34034115 -0.3397321 0.35697114
0.84609765 0.20123354 0.54015476 0.09349542 -0.024579747 -0.30701518 0.35622308 -0.4507909
0.5385201 -0.32514158 0.39603013 -0.2786581 -0.1244192 -0.15731055 -0.02935627 0.66968644
-0.21245815 0.07854452 -0.19258808 0.46561044 -0.54384047 -0.08545232 0.66995615 0.9755791
-0.23130716 0.59696525 -0.10383296 0.12296626 -0.1606258 0.13209575 -0.21130866 -0.14820749
-0.2635776 0.8472258 -0.16246901 -0.37859234 -0.09578792 -0.19175775 -0.13433243 0.06574789
0.21305242 0.3748662 0.16191815 0.07709667 -0.28051353 0.5510249 0.40874797 -0.41478467
-0.22213158 -0.41498715 -0.4147405 -0.24856275 -0.10962764 -0.30128685 0.31500232 0.22805485
0.18448782 0.09371523 0.4652044 0.27985525 0.010175051 -0.3955726 0.26284578 0.13808726
0.35748097 -0.15589549 -0.11439672 -0.07585102 0.29010996 0.5569016 0.22130509 0.1688569
0.2157459 0.1802858 -0.43951625 -0.036993343 0.034770567 0.509726 -0.0147856455 0.44488713
0.019212425 0.097366594 -0.10573248 -0.21530282 0.42683226 0.0461262 -0.24448773 -0.09424846
-0.020008035 0.34965318 -0.06607647 0.36670718 0.032126006 -0.012226859 0.29731715 0.053960443
-0.019896626 0.080474466 -0.036411896 -0.07465663 -0.13791977 -0.04745662 -0.03516253 -0.01225209
-0.00636849 0.09087689 -0.104887865 -0.06670489 -0.23524578 -0.14718151 -0.08045137 -0.21469674
-0.1633201 0.028899845 0.12786287 0.34026486 -0.11373009 -0.039002974 0.10014041 -0.012809992
-0.06353839 0.0025437027 -0.043278236 -0.37738377 0.09312851 -0.083370924 0.24343134 0.026410773
-0.23908795 -0.10198766 -0.113465786 -0.20018436 0.031657927 -0.20433238 -0.07922013 0.20669961
-0.16227251 -0.32677767 0.36829466 -0.094546735 0.14102963 0.6657342 0.45759508 0.4071101
0.6227419 0.24805763 -0.009253872 -0.12713973 0.06652177 -0.0576452 -0.15607473 -0.14061482
0.21747775 0.85902727 0.11021348 0.20812371 -0.22446823 0.44885802 0.3813972 -0.46419156
-0.056304798 0.08028996 0.37893948 -0.29785594 0.36633298 -0.30496746 0.420922 -0.15602124
0.09204796 0.2773705 -0.20772627 -0.21138261 0.17252646 0.64297 0.4182032 0.36531723

l1.bias f4 [8]
00000000: 32d0 073f c9ca 3e3f ee5b d43e 42d4 963d
00000010: ce33 203f 3efd 4b3f 758d 163f 1af6 3e3f
0.53052056 0.74528176 0.41476387 0.07364704 0.6257905 0.7968329 0.58809596 0.7459427

l2.weight f4 [8, 8]
00000000: 05e0 233f 1592 683f a97a b63e 64a3 69be
00000010: fc26 af3f a418 0abf 36a8 263c bd1a ab3f
00000020: deb4 39bf a070 0d3f 7cf2 40bf 110a 143f
00000030: 0899 b43e 4c2c f93c 5267 af3e 37b1 bb3f
00000040: dcf7 fcbe 447b 9fbe 9108 15bf f48c 3f3f
00000050: ee63 403f fe2f 6ebf 1a8c 0a3e bd50 2f3f
00000060: ba5f 7abf a304 29bd 25ba 81bf 051a 003f
00000070: 5a06 d13e 0cd6 213f bc12 bc3e 40d6 9b3f
00000080: d034 aa3e 8eb6 cd3e dfd1 89be 04b3 c7bb
00000090: 8326 2bbf f422 d03f bde5 63bf 170c 513f
000000a0: 1c35 b13e 6ac7 2dbf 7ee8 d73e 7dc4 fa3e
000000b0: ddf6 8d3e d916 e0be 270a a53f 7b1b 133e
000000c0: a1dc 6dbf 76f5 e93f 568a af3e dd25 27be
000000d0: 61c5 17bf 91f9 dbbd da48 9cbe 85be a63e
000000e0: 6be0 0f3b 4745 dc3e 4ef9 86bf 4342 b0be
000000f0: 2c90 0abf 1821 a63f a97e 49bf 832b 6f3f
0.640137 0.90847903 0.35640457 -0.22816235 1.3683772 -0.5394385 0.010171941 1.3367535
-0.72541606 0.5524998 -0.7537 0.5782786 0.35273004 0.03041663 0.34258515 1.4663457
-0.49407852 -0.31148732 -0.58216196 0.7482445 0.7515248 -0.9304198 0.13530007 0.6848257
-0.9780232 -0.041264188 -1.0134932 0.500397 0.40825158 0.63217235 0.36733043 1.2174759
0.33243418 0.4017834 -0.2691793 -0.0060943384 -0.6685564 1.6260667 -0.8902243 0.8165907
0.34610832 -0.67882407 0.42169565 0.48978034 0.27727404 -0.4376743 1.2893723 0.14365952
-0.9291478 1.8278034 0.3428523 -0.16323037 -0.5928555 -0.107409604 -0.3052433 0.3256723
0.0021953832 0.43021604 -1.0544832 -0.34425554 -0.5412624 1.297885 -0.78708893 0.9342577

l2.bias f4 [8]
00000000: 2f45 f8be 439e afbe 1942 dfbb 0f29 363e
00000010: 25a5 353f d9a3 013f 71da 393f 09a3 333f
-0.48490283 -0.34300432 -0.0068132994 0.177891 0.70955116 0.50640637 0.7259894 0.70170647

l3.weight f4 [7, 8]
00000000: b19a 00c0 0f0a 5abf 0caf 5ebe 13d5 5abe
00000010: e3e0 98bf 6c35 5e3f 6d98 6ebf e64c 34bf
00000020: 04e6 a0bf 2c9c cbbf ed8f 1fbf 4b96 83bf
00000030: 445f 103e 0ac2 9ebf d8d6 9e3f da6b 4a3e
00000040: 8dd0 103f 4723 62bf aee6 a7bf 6181 edbe
00000050: 30db 94bf bc11 aabe 30e8 7abf 39ee 54bf
00000060: 2a79 a7be 8cac 8e3e 9820 5ebf c2db 193f
00000070: c940 52be 582d f7bf 6aa4 f3bc e8ca a93e
00000080: 459a bd3e 96bc 113f 2b2b 95bf 4d44 13bf
00000090: c872 97bf b3d2 f4bf 31d1 f03e a9dc 9bbf
000000a0: 0f0c 28bf 9f12 103f a2ec 3d3f 90ab 0c3f
000000b0: b107 68bf 5e94 2bbf e1f9 9ebe b6c2 8bbf
000000c0: 578d f2bf 288b a5bf 760b 89be be67 c6be
000000d0: 0d28 773f 47ad 96bf fbe7 94bf 65e2 2c3f
-2.0094416 -0.851716 -0.21746463 -0.21370344 -1.194363 0.86800265 -0.93201333 -0.7042984
-1.2570195 -1.5907035 -0.6232899 -1.0280241 0.14098841 -1.2402966 1.2409315 0.19767705
0.56568223 -0.8833508 -1.3117273 -0.4638777 -1.1629391 -0.33216655 -0.9801054 -0.83176
-0.32709628 0.27866018 -0.86768484 0.6010095 -0.20532526 -1.9310713 -0.029741485 0.33162618
0.3703176 0.56928384 -1.1653799 -0.57526094 -1.1831903 -1.91268 0.470346 -1.2176715
-0.656434 0.56278414 0.741892 0.54949284 -0.90636736 -0.67023265 -0.31050017 -1.0918796
-1.8949383 -1.2933092 -0.26766557 -0.38751024 0.9654549 -1.177163 -1.1633295 0.6753295

l3.bias f4 [7]
00000000: 9db7 e93e 2252 ed3d 40f9 393f 69bf 1abf
00000010: 08bb f2be f9e4 8bbe 940e 203d
0.45647898 0.11587931 0.7264595 -0.6044832 -0.4740832 -0.2732313 0.039076403
